NonPreTrained.pth (torch, 518715 bytes, 13 tensors)

0.weight f4 [32, 3, 3, 3]
-0.17197694 -0.055281397 0.046669897 0.061954513 -0.22053373 0.15037136 0.024682028 -0.37405226
-0.22525506 -0.24420738 -0.095277786 -0.30900544 -0.14636363 -0.5041857 0.017083455 -0.19971395
-0.28513062 -0.42372832 -0.17423955 0.15220638 0.05641479 0.17201343 -0.102282 0.24706233
0.015469536 -0.10404139 -0.09129684 -0.004692705 -0.1082777 -0.16083562 0.15628308 0.14338452
0.07287286 -0.057248123 0.086485706 -0.1943054 -0.22822791 -0.2390303 -0.07621277 -0.21571457
0.039578576 -0.09966298 -0.24549945 -0.14301106 0.090347014 0.04681715 0.0386216 -0.20196927
0.06145723 -0.2565131 0.11104327 0.06403578 -0.20515813 -0.15422696 0.030078996 0.034596276
-0.26131693 0.022180783 0.028715232 -0.12373842 -0.09896177 -0.19143565 -0.2146457 0.22090042
0.29368111 0.019654103 0.35916626 0.3672871 0.21476609 -0.02778907 0.06842934 -0.038197473
0.35607728 0.38857543 -0.041182823 0.34796453 0.1698605 0.062869936 0.12197634 0.32156968
-0.097575955 -0.31090355 -0.22459617 -0.42940018 -0.080572255 0.1982698 -0.12509663 0.122785814
0.260005 0.13881505 -0.39208266 -0.55246586 -0.636281 0.011171609 0.047999706 -0.09569977
0.19688678 -0.012186382 -0.038829014 -0.64507854 -0.3871504 -0.5962211 -0.05029097 0.119479634
-0.08537069 -0.12050242 0.27449948 -0.052333627 -0.049196247 -0.07695373 -0.23066512 -0.122940406
-0.2507701 -0.07679543 0.11397398 0.07787309 -0.15044332 0.02922616 0.0064671473 0.08199858
-0.102343954 0.03618774 -0.16840266 0.15106677 -0.06422912 -0.022313304 -0.21847041 -0.1604103
-0.30344722 -0.13065723 -0.18176454 -0.15343022 -0.34143868 -0.13706744 -0.071988426 0.014328935
0.084403686 -0.19935976 0.0053604227 -0.046366148 0.028760307 0.006495365 0.062180378 0.03713003
-0.24596116 -0.23126923 -0.01170076 0.032775924 0.070635594 -0.23227797 0.15701546 -0.055956986
-0.17455854 -0.039112408 -0.23706657 -0.26149824 -0.05185507 -0.11404244 -0.3361301 -0.026725521
-0.26334408 -0.24914333 -0.23266259 0.14393781 0.07721887 0.17859074 0.05674262 -0.08683357
-0.117644906 -0.024746912 0.07633735 -0.1853118 -0.16515853 -0.2530051 -0.3217213 -0.39105973
-0.44507116 -0.4780892 -0.14901501 -0.15081955 -0.42263567 -0.05372022 -0.25086892 -0.30080244
-0.2589461 -0.39786676 -0.40328002 -0.27711284 -0.3509661 0.16623141 0.19663002 0.10574724
0.15808557 0.09259407 -0.1275213 0.17644797 0.053961106 -0.042993505 -0.2458046 -0.49271214
-0.34745872 -0.3317416 -0.14396912 -0.30841067 -0.36763585 -0.46338722 -0.45803452 0.12955494
-0.107599616 0.12638624 -0.006544452 0.16640797 0.13882837 0.122142404 0.090949744 0.16168556
-0.22957349 -0.21081667 -0.17553984 -0.32777327 -0.32934383 -0.15752763 -0.31572017 -0.343673
-0.05380768 0.23729059 0.21295774 0.21243271 0.048928004 -0.08697829 0.110448934 -0.05510353
-0.061217133 -0.0476031 0.13438772 0.35499322 -0.013812361 0.11567829 0.19644186 0.30999205
0.3116819 -0.055677976 0.12521061 0.013488702 -0.2985459 -0.4247738 0.1946554 0.1683244
-0.26661867 0.3234748 0.20321399 0.11837851 -0.085446 -0.1896507 -0.2026657 0.21942408
00000000: b91a 30be bf6e 62bd ef28 3f3d 04c4 7d3d
00000010: 98d3 61be f3fa 193e f731 ca3c c783 bfbe
00000020: 43a9 66be 8011 7abe 0021 c3bd f635 9ebe
00000030: 59e0 15be 5012 01bf 9af2 8b3c d081 4cbe
00000040: a4fc 91be ebf2 d8be da6b 32be fddb 1b3e
00000050: 3213 673d 4a24 303e 3a79 d1bd e8fd 7c3e
00000060: f073 7d3c a713 d5bd d6f9 babd 43c5 99bb
00000070: b3c0 ddbd 18b2 24be ac08 203e 64d3 123e
00000080: 5e3e 953d 027d 6abd 6b1f b13d fff7 46be
00000090: 94b4 69be 5cc4 74be 7115 9cbd 48e4 5cbe
000000a0: 251d 223d 1b1c ccbd 3564 7bbe 7e71 12be
000000b0: db07 b93d 57c3 3f3d af31 1e3d 08d1 4ebe
000000c0: 94ba 7b3d af55 83be a76a e33d 3125 833d
000000d0: f914 52be aced 1dbe 3a68 f63c d3b4 0d3d
000000e0: 55cb 85be 79b4 b53c 353c eb3c 926a fdbd
000000f0: 78ac cabd b507 44be 15cc 5bbe b833 623e
00000100: 5f5d 963e a401 a13c a4e4 b73e 0e0d bc3e
00000110: a4eb 5b3e e7a5 e3bc af24 8c3d f474 1cbd
00000120: c34f b63e 5cf3 c63e 52af 28bd 6828 b23e
00000130: e9ef 2d3e f4c1 803d bbce f93d c8a4 a43e
00000140: e7d5 c7bd c02e 9fbe 8afc 65be 57da dbbe
00000150: 1103 a5bd 3d07 4b3e 5519 00be 2177 fb3d
00000160: 601f 853e 8825 0e3e 0fbf c8be 676e 0dbf
00000170: 50e3 22bf 2009 373c 579b 443d 3efe c3bd
00000180: b09c 493e 64a9 47bc 2c0b 1fbd de23 25bf
00000190: 9438 c6be f2a1 18bf e7fd 4dbd bdb1 f43d
000001a0: d4d6 aebd f9c9 f6bd 328b 8c3e c95b 56bd
000001b0: 0182 49bd eb99 9dbd 7a33 6cbe 2ec8 fbbd
000001c0: f064 80be ec46 9dbd 316b e93d ed7b 9f3d
000001d0: d00d 1abe b36b ef3c 5dea d33b dfee a73d
000001e0: b599 d1bd 9839 143d bf71 2cbe 3fb1 1a3e
000001f0: 8f8a 83bd 64ca b6bc b5b6 5fbe 9942 24be
00000200: 6f5d 9bbe 02cb 05be 7c20 3abe d01c 1dbe
00000210: 0dd1 aebe 685b 0cbe ab6e 93bd e9c3 6a3c
00000220: d7db ac3d f724 4cbe 7ca6 af3b 6eea 3dbd
00000230: bc9a eb3c 12d7 d43b dab0 7e3d a915 183d
00000240: 3edd 7bbe d7d1 6cbe 8bb4 3fbc 0c40 063d
00000250: 65a9 903d 47da 6dbe a9c8 203e 2733 65bd
00000260: 79bf 32be 5534 20bd 94c1 72be 19e3 85be
00000270: fb65 54bd 158f e9bd 3f19 acbe 7bef dabc
00000280: 09d5 86be 6e1f 7fbe 1a3f 6ebe 6f64 133e
00000290: ed24 9e3d 7ee0 363e f36a 683d ccd5 b1bd
000002a0: d0ef f0bd 09ba cabc c256 9c3d 60c2 3dbe
000002b0: 511f 29be e289 81be a7b8 a4be fb38 c8be
000002c0: 5ee0 e3be 1cc8 f4be 6497 18be 7170 1abe
000002d0: b463 d8be bc09 5cbd e471 80be c702 9abe
000002e0: 9594 84be 31b5 cbbe b87a cebe bce1 8dbe
000002f0: d4b1 b3be 9138 2a3e 6159 493e 0292 d83d
00000300: 2fe1 213e f6a1 bd3d f294 02be c7ae 343e
00000310: 5206 5d3d f519 30bd 33b4 7bbe c444 fcbe
00000320: 1ce6 b1be 09da a9be a46c 13be 01e8 9dbe
00000330: c43a bcbe 1741 edbe 8083 eabe 0daa 043e
00000340: 305d dcbd 656b 013e d872 d6bb da66 2a3e
00000350: 0629 0e3e cc25 fa3d dc43 ba3d e690 253e
00000360: 5015 6bbe 53e0 57be b7c0 33be e6d1 a7be
00000370: c19f a8be ec4e 21be 13a6 a1be e8f5 afbe
00000380: 7165 5cbd 4efc 723e 9811 5a3e f687 593e
00000390: bb68 483d ac21 b2bd 0d33 e23d 3db4 61bd
000003a0: d1be 7abd 78fb 42bd ef9c 093e acc1 b53e
000003b0: 3e4d 62bc bde8 ec3d 0e28 493e 47b7 9e3e
000003c0: c594 9f3e 970e 64bd 3637 003e b7ff 5c3c
000003d0: 02db 98be f47b d9be bf53 473e 3b5d 2c3e
000003e0: 3e82 88be 7d9e a53e 5417 503e 6f70 f23d
000003f0: 50fe aebd cb33 42be 9987 4fbe b5b0 603e

0.bias f4 [32]
0.13745989 -0.20210439 -0.24284896 0.03402429 -0.037663527 -0.14400774 0.24773969 0.20522688
0.09143741 0.0832461 -0.15710294 -0.03489414 0.2645564 -0.022639621 0.19696464 -0.4113708
0.23113565 0.06417613 0.25422654 -0.05015243 -0.16908532 0.21184814 -0.21023163 -0.17936863
-0.15633373 0.14196771 0.24324031 -0.011176659 0.10297345 -0.04692764 -0.18541224 -0.23819166
00000000: 49c2 0c3e 74f4 4ebe 66ad 78be 0e5d 0b3d
00000010: 1245 1abd c476 13be 79af 7d3e ff26 523e
00000020: 8943 bb3d ee7c aa3d 98df 20be 28ed 0ebd
00000030: f073 873e ba76 b9bc 19b1 493e 329f d2be
00000040: d3ae 6c3e c66e 833d fb29 823e a26c 4dbd
00000050: b424 2dbe b8ee 583e f646 57be 69ac 37be
00000060: f315 20be fc5f 113e fd13 793e 4e1e 37bc
00000070: bfe3 d23d 3237 40bd b5dc 3dbe 84e8 73be

3.weight f4 [64, 32, 3, 3]
-0.03638913 -0.031079853 -0.051151324 -0.066854686 0.019034395 -0.07427642 -0.0032996598 -0.07484487
-0.083633035 -0.017758518 -0.03273284 -0.04775661 -0.013397062 0.009494799 0.030044444 0.048164364
-0.0027036634 -0.04778658 0.014439547 0.019437969 -0.060327794 -0.030389523 -0.014183235 -0.0583664
-0.044302985 -0.0037156753 -0.0573654 -0.060042348 -0.03748288 0.008151572 0.041096907 0.011299109
-0.017440233 -0.056824483 0.04632189 -0.0067918515 -0.0474357 0.011273484 0.00805266 0.017715879
0.0024068684 -0.048555724 -0.03924981 0.0022567557 0.0075113755 -0.02267093 -0.010635856 -0.028507663
0.027321266 -0.02527378 -0.036334522 -0.009385098 -0.056823634 -0.0052350396 -0.049068946 -0.033843305
-0.02152413 -0.035020027 0.017146653 -0.044685133 -0.04759049 -0.03103414 0.048552975 -0.04069164
-0.05680356 -0.060023848 -0.02606362 -0.059653535 0.030862194 -0.07087443 0.02879725 -0.045365583
-0.04870541 -0.025761347 -0.021624774 1.6008615e-05 -0.029644461 -0.0146809155 0.04843434 -0.012063219
-0.012375733 0.011519266 -0.027693326 -0.080075495 -0.06759022 -0.02743388 0.016048132 -0.010899174
0.010015431 -0.045671586 0.030482428 -0.030921394 0.0057996945 0.013593489 0.04736252 0.026080854
0.008518911 0.022123955 -0.005117295 0.0405657 0.017528348 0.040885564 -0.031120585 -0.058308166
0.009376042 0.05016594 -0.036051277 -0.046690382 -0.08535955 -0.03212067 -0.021594929 -0.018612346
-0.021379456 -0.064400144 -0.048495147 0.020012548 -0.03677437 -0.06998642 0.0072557754 0.03743694
-0.074045375 0.0013552377 0.033459667 0.002235017 -0.022202058 0.0061236974 -0.018754324 -0.01253201
0.016223805 -0.05183991 -0.035702504 0.031464957 -0.02696205 -0.04208686 0.03827542 0.019741936
0.0010646903 -0.021669462 0.008735587 -0.027546868 -0.0025082233 -0.025123475 -0.0020681755 0.0020873838
0.022509905 -0.04478874 -0.08295645 -0.05192574 -0.037228197 0.024809018 -0.04935178 0.0065329275
-0.035463504 0.016570218 -0.0064596944 -0.051611036 -0.06414704 0.026015723 -0.031006549 0.02437958
0.044258706 -0.04587247 0.0028209025 0.004672859 0.014309412 -0.025334116 -0.057708323 0.012937636
0.024820805 0.0010157553 0.0030317625 -0.009829336 -0.003947244 0.012834532 -0.006155162 -0.035072483
-0.025896175 0.0033076892 -0.06247392 -0.05285805 0.04611349 0.008797051 0.0560819 0.037536316
-0.030436486 -0.0064874436 -0.0067284238 -0.055287085 0.02073302 0.021447318 -0.03660038 -0.035145774
-0.0012754615 -0.029666433 -0.049982425 0.0023965195 -0.041361205 -0.058539785 -0.058041625 -0.012583023
0.026926298 -0.057409972 0.031150518 -0.030219488 0.018870613 -0.000944725 -0.0040095598 -0.0706171
-0.05654913 -0.053707674 -0.056385398 -0.012411301 0.016827911 -0.047044747 0.019275691 -0.068751805
0.015148269 0.044066645 -0.06153351 0.026535422 0.04166395 0.00047005675 -0.04389746 -0.024177326
0.016121553 -0.053856812 0.04243572 -0.007161488 0.04357289 -0.016803496 -0.0028716712 -0.036260527
-0.025451394 -0.055896822 -0.07455333 -0.017886277 -0.05133595 -0.00011800077 0.0161299 -0.05922644
-0.027179645 -0.04368301 -0.045272704 0.002364937 -0.03581734 -0.017768107 -0.008392445 -0.031584222
0.05125391 0.052719 0.036107488 0.013190756 0.04042559 0.02122423 -0.023341324 -0.057026446
00000000: c50c 15bd 2d9b febc 0d84 51bd 1ceb 88bd
00000010: 05ee 9b3c 3c1e 98bd 1b3f 58bb 4448 99bd
00000020: cc47 abbd 507a 91bc df12 06bd 6f9c 43bd
00000030: 5a7f 5bbc 1390 1b3c c41f f63c ff47 453d
00000040: f22f 31bb dcbb 43bd da93 6c3c 603c 9f3c
00000050: 471a 77bd 73f3 f8bc cd60 68bc 9b11 6fbd
00000060: 0c77 35bd b082 73bb fbf7 6abd f7ee 75bd
00000070: a687 19bd 2c8e 053c 3b55 283d e61f 393c
00000080: d2de 8ebc cac0 68bd 06bc 3d3d 2e8e debb
00000090: f04b 42bd 6bb4 383c 4eef 033c e420 913c
000000a0: 8dbc 1d3b 5ee2 46bd 69c4 20bd 14e6 133b
000000b0: fc21 f63b 63b8 b9bc 0342 2ebc e788 e9bc
000000c0: d9d0 df3c f50a cfbc 82d3 14bd f4c3 19bc
000000d0: e6bf 68bd b28a abbb 85fc 48bd 479f 0abd
000000e0: 5f53 b0bc 2971 0fbd 2377 8c3c c207 37bd
000000f0: 3fee 42bd 4f3b febc 7cdf 463d 47ac 26bd
00000100: daaa 68bd 91db 75bd 5f83 d5bc 4457 74bd
00000110: b6d2 fc3c 9d26 91bd 36e8 eb3c 43d1 39bd
00000120: 537f 47bd 7609 d3bc 7026 b1bc 3d4a 8637
00000130: f1d8 f2bc 3988 70bc 1663 463d cfa4 45bc
00000140: 96c3 4abc 4ebb 3c3c 1ddd e2bc 9ffe a3bd
00000150: be6c 8abd 04bd e0bc 5f77 833c 7392 32bc
00000160: c317 243c 2112 3bbd 49b6 f93c dd4e fdbc
00000170: 5d0b be3b 3ab7 5e3c 34ff 413d 84a7 d53c
00000180: e792 0b3c 4c3d b53c fbae a7bb 3828 263d
00000190: 9c97 8f3c 9f77 273d 99f0 febc 8bd4 6ebd
000001a0: f89d 193c cd7a 4d3d 81aa 13bd 6a3e 3fbd
000001b0: fdd0 aebd f790 03bd d9e7 b0bc eb78 98bc
000001c0: f823 afbc 39e4 83bd d9a2 46bd 5bf1 a33c
000001d0: b9a0 16bd 0a55 8fbd dbc1 ed3b 7a57 193d
000001e0: 1aa5 97bd 3ba2 b13a 010d 093d 5d79 123b
000001f0: 17e1 b5bc 4ca9 c83b aba2 99bc 0f53 4dbc
00000200: c9e7 843c 1656 54bd ca3c 12bd 66e1 003d
00000210: 84df dcbc 4563 2cbd b0c6 1c3d d7b9 a13c
00000220: 148d 8b3a 2884 b1bc b51f 0f3c f8a9 e1bc
00000230: 0161 24bb bfcf cdbc 3a8a 07bb 7dcc 083b
00000240: b166 b83c 6674 37bd 12e5 a9bd 16b0 54bd
00000250: 987c 18bd 483c cb3c 1825 4abd 2b12 d63b
00000260: 2e42 11bd 44be 873c d8ab d3bb 1866 53bd
00000270: 865f 83bd ed1e d53c 7201 febc afb7 c73c
00000280: 9e48 353d c5e4 3bbd e4de 383b c81e 993b
00000290: 0672 6a3c 7e89 cfbc 905f 6cbd 61f8 533c
000002a0: 0055 cb3c 1823 853a 89b0 463b 390b 21bc
000002b0: e257 81bb ee47 523c 3eb1 c9bb 2aa8 0fbd
000002c0: 3724 d4bc d1c5 583b a7e4 7fbd af81 58bd
000002d0: 80e1 3c3d 8221 103c 22b6 653d aebf 193d
000002e0: f055 f9bc 9f94 d4bb 1c7a dcbb b674 62bd
000002f0: 4bd8 a93c 49b2 af3c 48ea 15bd 04f5 0fbd
00000300: 632d a7ba 0507 f3bc 5fba 4cbd ed0e 1d3b
00000310: 5e6a 29bd 6ac7 6fbd 0ebd 6dbd 0629 4ebc
00000320: 8a94 dc3c b826 6bbd 5f2f ff3c dc8e f7bc
00000330: 8b96 9a3c 6ca7 77ba a062 83bb b39f 90bd
00000340: 0fa0 67bd 94fc 5bbd 60f4 66bd c558 4bbc
00000350: b0da 893c feb1 40bd 0ee8 9d3c bfcd 8cbd
00000360: 7230 783c 3a7f 343d 900a 7cbd d060 d93c
00000370: d1a7 2a3d f371 f639 d3cd 33bd 870f c6bc
00000380: 5911 843c f698 5cbd 14d1 2d3d eaaa eabb
00000390: 7d79 323d 7ca7 89bc a632 3cbb eb85 14bd
000003a0: 717f d0bc 11f4 64bd 6baf 98bd 3e86 92bc
000003b0: a545 52bd 2e77 f7b8 da22 843c 6c97 72bd
000003c0: d9a7 debc f5ec 32bd df6f 39bd 0ffd 1a3b
000003d0: 34b5 12bd 6c8e 91bc 7780 09bc 755e 01bd
000003e0: 9fef 513d e1ef 573d 72e5 133d 0a1e 583c
000003f0: 4e95 253d 70de ad3c 4e36 bfbc 9094 69bd

3.bias f4 [64]
-0.013242652 -0.065307274 -0.0771212 0.09661499 -0.06380247 0.079137824 0.07130854 -0.107726105
0.17101617 -0.01732797 -0.076309144 0.04507727 -0.11562186 0.04342594 0.16305043 -0.08217707
-0.0058142846 0.10318476 -0.029688401 -0.048878502 -0.5613397 -0.0033821159 -0.055405002 0.018898647
-0.019285168 -0.00923135 0.15614575 -0.0636044 -0.03515856 -0.06461975 0.018783607 -0.056835666
-0.095890135 -0.08905916 0.14525603 0.019574152 0.006301796 0.026340166 -0.017121144 -0.049215008
-0.0025480823 0.01054063 -0.034009814 -0.02980174 0.06710158 -0.025186634 -0.01628158 -0.06821325
-0.3154758 -0.018928077 -0.07302391 0.0034043507 0.040368266 -0.5741326 0.009921463 -0.078891374
0.007694993 0.10129224 -0.058342967 0.06570185 -0.04928983 -0.016263654 0.006357428 0.07264809
00000000: b5f7 58bc d2bf 85bd b8f1 9dbd 14de c53d
00000010: dfaa 82bd 0313 a23d 360a 923d 819f dcbd
00000020: dd1e 2f3e 63f3 8dbc f847 9cbd f2a2 383d
00000030: 27cb ecbd 66df 313d b1f6 263e 744c a8bd
00000040: c185 bebb 8852 d33d 1735 f3bc d334 48bd
00000050: f5b3 0fbf 7da6 5dbb 5bf0 62bd 56d1 9a3c
00000060: eefb 9dbc 173f 17bc ace4 1f3e 0643 82bd
00000070: 6c02 10bd 5c57 84bd 14e0 993c 84cc 68bd
00000080: 0c62 c4bd a664 b6bd ffbd 143e f959 a03c
00000090: 4c7f ce3b 55c7 d73c a441 8cbc ad95 49bd
000000a0: bafd 26bb 9bb2 2c3c e04d 0bbd c722 f4bc
000000b0: 8e6c 893d 3354 cebc f360 85bc 63b3 8bbd
000000c0: 0b86 a1be 0e0f 9bbc 8f8d 95bd 871b 5f3b
000000d0: 3259 253d 5bfa 12bf a28d 223c cd91 a1bd
000000e0: 4826 fc3b 4e72 cf3d 09f9 6ebd b18e 863d
000000f0: 22e4 49bd 5b3b 85bc f951 d03b 86c8 943d

5.weight f4 [128, 64, 3, 3]
0.013892424 0.008358219 0.0048608766 -0.031934626 0.023538204 0.033720344 -0.036776304 -0.014602713
0.036731094 -0.0052449075 -0.046942107 -0.0500908 -0.018184101 -0.053000312 -0.019129131 -0.02277692
0.006999434 -0.05210474 0.0213913 0.012110881 0.004907479 0.029030494 -0.0031979363 0.043447558
0.026030049 -0.016199702 0.0032138762 0.09017843 0.2311781 0.16078521 0.17706768 0.3479913
0.27180666 0.24155559 0.32858083 0.22560477 -0.027020682 -0.007671906 -0.049709965 -0.027786514
-0.01148481 -0.022925047 0.010149789 -0.0493763 0.019668605 0.05317227 0.041748203 0.019101588
-0.006941996 -0.16866456 -0.06866623 -0.020883959 -0.087946415 -0.027472932 -0.17961845 -0.31642607
-0.23624395 -0.24785544 -0.41534093 -0.14762488 -0.2102679 -0.23788737 -0.09223994 0.24722566
0.42966825 0.3716398 0.14174691 0.14920866 0.20239581 0.10659623 0.13493012 0.190564
0.15328035 0.11405047 0.09698087 0.11780984 0.16813225 0.049201187 0.0973011 0.069481835
-0.0020396386 -0.028108817 0.005284698 -0.051565245 0.0032422636 0.022666063 -0.008498772 0.008681444
-0.015498487 -0.013553956 -0.040607017 0.00938093 0.060643077 -0.009105634 0.04632709 0.056087047
0.013135388 0.027589492 0.019626662 -0.020940492 -0.059043173 -0.018827656 -0.12271513 -0.18390527
-0.12314692 -0.10519882 -0.15140605 -0.00048238426 0.305305 0.09339937 -0.036521822 0.4134896
0.2069902 0.09448264 0.34909728 0.28405106 0.17721999 -0.009407087 -0.041783094 -0.015480826
-0.06378528 -0.1923257 -0.057080764 0.029873192 -0.07721858 0.018230207 0.026768638 -0.011446058
0.028810827 -0.07834037 -0.14717808 -0.08066629 -0.03707722 -0.11955271 -0.04889046 0.015984623
0.0067399866 0.027514718 -0.02127578 0.03996301 0.004238238 0.007417574 -0.019347012 -0.030730478
0.051803384 0.028587176 -0.004263972 0.01740242 0.012396908 0.06535604 -0.0011857896 0.043836914
0.00201742 0.11989545 0.09370419 0.041908063 -0.029966945 -0.1545079 -0.10903746 -0.0027770607
-0.14333329 -0.05785369 0.045476597 0.03765881 0.033568908 0.009256688 0.027167775 0.03153694
0.03233561 0.049069628 -0.01683033 -0.06735755 -0.043306414 -0.0022836667 -0.043016117 -0.014286043
-0.017243922 -0.028411552 -0.017685225 -0.01383881 -0.14240395 -0.121023186 -0.08145917 -0.17094567
-0.069379926 0.011344387 -0.11237037 -0.035417683 -0.032884046 -0.03769541 -0.006083625 -0.028384585
0.005132847 -0.045242053 0.008854229 -0.04430498 -0.02016072 -0.004806168 0.028431445 -0.02668983
0.0028438608 0.0076955683 0.035143573 -0.04041861 0.040954467 0.0384143 -0.00605796 -0.04710315
-0.01072589 -0.022001369 -0.058389917 -0.06353717 -0.05138407 -0.052743126 -0.06745596 0.02735743
-0.01580622 -0.024401115 0.030412432 0.008989554 0.05823744 -0.024684167 0.037111674 0.012786026
-0.034104504 0.048701793 0.036767337 0.018574037 -0.027689103 -0.0079198135 -0.024139093 0.043021195
-0.02925283 0.009304794 -0.14318226 -0.22564933 -0.16044727 -0.20866957 -0.25363344 -0.2213662
-0.23060893 -0.27540106 -0.20001313 -0.026553687 -0.018564705 0.014779275 0.010398399 0.00081537705
0.037123457 -0.034543447 0.022854878 0.030722339 -0.013307096 0.03478778 0.022005005 0.033864427
00000000: 0d9d 633c e9f0 083c fd47 9f3b e2cd 02bd
00000010: 31d3 c03c 581e 0a3d c0a2 16bd 3840 6fbc
00000020: 5873 163d 79dd abbb 5e46 40bd 032c 4dbd
00000030: d3f6 94bc db16 59bd b2b4 9cbc aa96 babc
00000040: 825b e53b c86b 55bd cf3c af3c b76c 463c
00000050: ebce a03b 5cd1 ed3c 7894 51bb 11f6 313d
00000060: f83c d53c 3db5 84bc e59f 523b 78af b83d
00000070: f4b9 6c3e e1a4 243e 3b51 353e ea2b b23e
00000080: 3e2a 8b3e 595a 773e bf3b a83e f004 673e
00000090: 7a5a ddbc 9d64 fbbb ad9c 4bbd 8ba0 e3bc
000000a0: c92a 3cbc 4fcd bbbc 4d4b 263c ce3e 4abd
000000b0: 0e20 a13c 2bcb 593d 2a00 2b3d ef7a 9c3c
000000c0: af79 e3bb 67b6 2cbe e1a0 8cbd d614 abbc
000000d0: 401d b4bd ea0e e1bc e6ed 37be 9902 a2be
000000e0: efe9 71be d1cd 7dbe 91a7 d4be fa2a 17be
000000f0: 7850 57be bf98 73be 4be8 bcbd b928 7d3e
00000100: 7afd db3e 9247 be3e 1a26 113e 28ca 183e
00000110: d940 4f3e 204f da3d 1f2b 0a3e 3623 433e
00000120: 86f5 1c3e 4b93 e93d e89d c63d 4946 f13d
00000130: dc2a 2c3e 2f87 493d cd45 c73d 7e4c 8e3d
00000140: 75ab 05bb 7644 e6bc 432b ad3b 1436 53bd
00000150: 287c 543b 2eae b93c 6f3e 0bbc 9e3c 0e3c
00000160: 5eed 7dbc 6911 5ebc 8b53 26bd 79b2 193c
00000170: e064 783d cc2f 15bc 7ac1 3d3d 88bb 653d
00000180: cf35 573c 5c03 e23c 18c8 a03c 658b abbc
00000190: 41d7 71bd 753c 9abc 1252 fbbd aa51 3cbe
000001a0: 7434 fcbd 7b72 d7bd 300a 1bbe 85e8 fcb9
000001b0: f050 9c3e 2b48 bf3d e897 15bd e9b4 d33e
000001c0: 3df5 533e 1d80 c13d e1bc b23e 246f 913e
000001d0: 2879 353e 2f20 1abc c024 2bbd 4aa3 7dbc
000001e0: dba1 82bd 07f1 44be 85cd 69bd a0b8 f43c
000001f0: c624 9ebd 8457 953c e749 db3c 3f88 3bbc
00000200: af04 ec3c ea70 a0bd dab5 16be 5e34 a5bd
00000210: 48de 17bd 0dd8 f4bd 5d41 48bd 2ff2 823c
00000220: 1bdb dc3b 8c66 e13c 8b4a aebc 41b0 233d
00000230: ebe0 8a3b 1f0f f33b a07d 9ebc 7cbe fbbc
00000240: c92f 543d a72f ea3c cab8 8bbb 858f 8e3c
00000250: 671c 4b3c 63d9 853d 7f6c 9bba 568e 333d
00000260: b136 043b bf8b f53d fbe7 bf3d caa7 2b3d
00000270: 3d7d f5bc 5237 1ebe 084f dfbd 59ff 35bb
00000280: f6c5 12be fef7 6cbd ab45 3a3d 2040 1a3d
00000290: 8d7f 093d 5da9 173c f48e de3c e12c 013d
000002a0: 5872 043d 3cfd 483d c3df 89bc c1f2 89bd
000002b0: 1162 31bd 92a9 15bb ab31 30bd 0210 6abc
000002c0: 2043 8dbc 58bf e8bc 9be0 90bc 2dbc 62bc
000002d0: 57d2 11be 01db f7bd 11d4 a6bd 620c 2fbe
000002e0: 1017 8ebd cfdd 393c 7022 e6bd 2212 11bd
000002f0: 6cb1 06bd 8166 1abd 2559 c7bb ca86 e8bc
00000300: 7131 a83b bb4f 39bd 5411 113c 2479 35bd
00000310: 1828 a5bc 0f7d 9dbb 10e9 e83c a1a4 dabc
00000320: 1160 3a3b 1b2b fc3b b5f2 0f3d fc8d 25bd
00000330: dfbf 273d 5058 1d3d da81 c6bb 3cef 40bd
00000340: a5bb 2fbc 373c b4bc 442a 6fbd c71f 82bd
00000350: 1a78 52bd 2d09 58bd 5a26 8abd b01c e03c
00000360: 0c7c 81bc d9e4 c7bc 7e23 f93c ec48 133c
00000370: 628a 6e3d 7336 cabc 6902 183d 7b7c 513c
00000380: 2ab1 0bbd 887b 473d 5999 163d 9428 983c
00000390: 42d4 e2bc 1bc2 01bc 59bf c5bc fe36 303d
000003a0: a2a3 efbc 2273 183c 5f9e 12be 9e10 67be
000003b0: 4a4c 24be 7aad 55be 3edc 81be d2ad 62be
000003c0: bf24 6cbe 5e01 8dbe 3ed0 4cbe 1e87 d9bc
000003d0: 0215 98bc c624 723c 0c5e 2a3c 07bf 553a
000003e0: c40e 183d 6e7d 0dbd 273a bb3c 6aad fb3c
000003f0: 0206 5abc a27d 0e3d d743 b43c 6db5 0a3d

5.bias f4 [128]
0.031195743 -0.10129308 0.052850075 0.076184444 -0.030167712 -0.14527811 0.17419545 0.06584271
0.080215715 -0.018347478 -0.058742274 0.021910643 -0.2942159 -0.021970458 -0.05708342 -0.10492473
-0.13029309 0.07319475 -0.013850728 0.0017655003 0.013885638 -0.087785356 0.20117052 0.037551913
0.053656824 -0.23617406 -0.010635687 -0.063479386 0.014838675 -0.15310064 -0.23104241 -0.061214294
0.23169631 -0.028589502 0.08472603 -0.12352819 -0.15981425 0.12062932 0.10110593 -0.12859386
-0.0667973 0.039317295 0.09635141 -0.37478516 -0.2992226 0.094443426 -0.045248274 -0.1287819
-0.17864254 -0.2302112 -0.06304178 0.0003368912 0.055580582 0.039041474 0.029144818 0.0054547023
0.007236068 0.04979854 0.028161786 -0.09868686 0.025919145 0.00502587 -0.07243499 0.010065122
0.022040455 -0.009188264 0.10553278 0.00644129 -0.034788877 0.021340173 -0.19202362 0.012109165
0.029266335 -0.024758868 -0.23307598 -0.0015221143 -0.06617543 -0.22810136 0.0007118194 -0.1430574
-0.034644883 -0.043426845 -0.043759424 0.17143546 0.04216172 -0.050540112 0.0075086798 0.015955495
-0.2447868 0.20777553 -0.070119366 0.03917357 -0.06987859 -0.115292504 0.2768608 -0.028066862
0.050239675 -0.072886206 -0.11698405 -0.028957216 -0.03870776 -0.009256829 0.03499504 -0.16190007
-0.08312003 0.05880205 0.008788088 0.052963942 0.04144768 0.046884734 -0.07965051 0.07884828
-0.05035776 -0.016551264 0.06572519 -0.13960445 -0.12370245 0.04454697 0.117123045 -0.11911804
0.0047781225 0.027346548 -0.032912213 -0.17494097 -0.084814906 -0.08322863 0.02107038 -0.028736861
00000000: 378e ff3c bf72 cfbd 5279 583d 9706 9c3d
00000010: 4722 f7bc c9c3 14be 4b60 323e 8bd8 863d
00000020: 2348 a43d 734d 96bc bd9b 70bd f37d b33c
00000030: 77a3 96be 64fb b3bc 4ed0 69bd c7e2 d6bd
00000040: 8d6b 05be 21e7 953d 2aee 62bc 5c68 e73a
00000050: 9680 633c cfc8 b3bd a5ff 4d3e 09d0 193d
00000060: 42c7 5b3d 9dd7 71be 4e41 2ebc 7b01 82bd
00000070: ea1d 733c 6ac6 1cbe 6296 6cbe d7bb 7abd
00000080: cc41 6d3e 8834 eabc d784 ad3d 59fc fcbd
00000090: 59a6 23be 810c f73d a010 cf3d 1cae 03be
000000a0: 06cd 88bd 2c0b 213d e353 c53d d7e3 bfbe
000000b0: b433 99be 8e6b c13d 4156 39bd 67df 03be
000000c0: 12ee 36be 7cbc 6bbe 0c1c 81bd c5a0 b039
000000d0: 77a8 633d f4e9 1f3d 1dc1 ee3c 5cbd b23b
000000e0: 8a1c ed3b 8ef9 4b3d 8cb3 e63c 561c cabd
000000f0: 6354 d43c 0eb0 a43b cc58 94bd 2ee8 243c
00000100: 2f8e b43c 5f8a 16bc 9221 d83d 7511 d33b
00000110: c87e 0ebd 96d1 ae3c d7a1 44be 8565 463c
00000120: f4bf ef3c 1cd3 cabc 78ab 6ebe ae81 c7ba
00000130: fc86 87bd 6793 69be 6499 3a3a a47d 12be
00000140: cbe7 0dbd 59e0 31bd 153d 33bd c78c 2f3e
00000150: c5b1 2c3d 2603 4fbd 5f0b f63b 19b5 823c
00000160: 64a9 7abe 1cc3 543e be9a 8fbd 7774 203d
00000170: 821c 8fbd 7a1e ecbd b3c0 8d3e 7aec e5bc
00000180: 1ec8 4d3d 5d45 95bd 5595 efbd af37 edbc
00000190: 078c 1ebd f4a9 17bc f656 0f3d 22c9 25be
000001a0: d63a aabd 6bda 703d eafb 0f3c b8f0 583d
000001b0: 0bc5 293d 350a 403d ce1f a3bd 357b a13d
000001c0: f043 4ebd 8496 87bc ee9a 863d 78f4 0ebe
000001d0: b657 fdbd e276 363d 35de ef3d 29f4 f3bd
000001e0: cc91 9c3b de05 e03c f5ce 06bd ba23 33be
000001f0: 70b3 adbd c673 aabd ca9b ac3c 9169 ebbc

7.weight f4 [30, 128, 3, 3]
-0.06174722 -0.07849417 -0.057430036 -0.028356122 -0.07839307 -0.08996538 -0.09056583 -0.06543213
-0.064632505 0.039455555 0.044722866 0.13162121 0.047057625 0.052433774 0.08908863 0.04787462
0.071328275 0.060086887 -0.25954664 -0.22121403 -0.26883802 -0.23468846 -0.16916801 -0.21507479
-0.3136556 -0.22197655 -0.24677895 -0.7470037 -0.7575198 -0.726206 -0.7655214 -0.6179153
-0.49114057 -0.71681327 -0.580421 -0.57809925 -0.2561074 -0.14010927 -0.081328146 -0.21463832
-0.09884783 0.0068609323 -0.104276024 0.011501086 0.12954064 0.10189724 0.08833722 0.18321271
0.094878405 0.095732756 0.11425767 0.088938974 0.11496281 0.116528004 -0.90227413 -0.5617488
-0.728462 -0.70996994 -0.32257837 -0.51771855 -1.0220532 -0.6818347 -0.96464705 -0.33089623
-0.22793809 -0.3673004 -0.31502473 -0.14245637 -0.2431005 -0.37710547 -0.26603535 -0.38095406
-0.10084007 -0.12264153 -0.07864167 -0.09065247 -0.09194723 -0.072612345 -0.16566345 -0.09079019
-0.08807646 -0.2261693 -0.15752031 -0.09585378 -0.18586764 -0.115594305 -0.045866653 -0.058762867
0.019591011 0.100076854 0.045049023 0.078545704 0.07655204 0.056961693 0.06994075 0.08457794
0.022112917 0.042075947 0.06590778 0.027887478 0.019114863 -0.032845825 0.039505254 -0.008974185
-0.0037731312 -0.03217872 -0.037590507 -0.035582364 0.22984804 0.26113725 0.36203519 0.232532
0.18538167 0.19997507 0.26226208 0.1750617 0.24799725 -0.2016649 -0.14373492 -0.08419403
-0.1914852 -0.08699668 -0.023055937 -0.121656165 0.0004752577 0.08161002 -0.18973534 -0.048118062
0.042308327 -0.15255322 -0.026401224 0.076396324 -0.026054671 0.09454694 0.20894663 0.080804214
0.07917195 0.14230658 0.1456457 0.040435687 0.01762444 0.13087733 0.089747265 0.054920536
0.026283227 0.05399413 0.13028705 0.08544562 0.06823214 0.12177837 0.041589495 0.070690334
0.10547163 -0.13782167 -0.085881315 -0.09378099 -0.038653355 -0.074389756 -0.07718707 -0.12520881
-0.10622727 -0.097674705 -0.093787745 -0.08894243 -0.16699152 -0.09462244 -0.04694101 -0.1309414
-0.15624273 -0.11511182 -0.1411701 -0.14267299 -0.14784165 -0.21329418 -0.12337584 -0.121146195
-0.1791314 -0.16571341 -0.104157515 -0.1476799 -0.09289078 -0.07070002 -0.033540938 -0.07348857
-0.023436874 -0.08157199 -0.13989556 -0.07847819 -0.1090775 0.020686828 0.0687832 0.10774544
0.060244437 0.03379034 0.08978132 0.05349904 0.024030467 0.04651098 -1.0192648 -0.65362215
-0.81523716 -0.8011759 -0.33763522 -0.52000356 -1.1786956 -0.77317613 -1.0591488 0.011334229
-0.04265482 0.003286971 0.034247912 -0.040254224 -0.061788324 -0.06653068 -0.07261055 -0.06048282
-0.24123512 -0.22387399 -0.28602615 -0.21832162 -0.15437523 -0.2012201 -0.3208127 -0.23120137
-0.26226276 0.0423735 0.13808481 0.30990347 0.115100496 0.11572257 0.23646654 0.26515248
0.24887319 0.32874456 0.05555127 0.068865575 0.069928005 0.09171442 0.037946 0.008891297
-0.00024807767 -0.025360977 0.00684749 -0.8433622 -0.49017048 -0.5083108 -0.67919225 -0.11155199
-0.040350933 -0.8182548 -0.42314893 -0.5169394 0.001176898 0.0044076894 -0.013402999 0.009116589
00000000: a7ea 7cbd 8dc1 a0bd c23b 6bbd 194b e8bc
00000010: 8c8c a0bd c53f b8bd 947a b9bd 4801 86bd
00000020: 0c5e 84bd 269c 213d 532f 373d b6c7 063e
00000030: 7fbf 403d ccc4 563d 1a74 b63d 2d18 443d
00000040: 8f14 923d ab1d 763d 4ce3 84be ee85 62be
00000050: 23a5 89be 2c52 70be 613a 2dbe 913c 5cbe
00000060: 7897 a0be d24d 63be 9fb3 7cbe a23b 3fbf
00000070: d1ec 41bf a3e8 39bf 36f9 43bf b22f 1ebf
00000080: c776 fbbe 1381 37bf 7896 14bf 50fe 13bf
00000090: 8220 83be ce78 0fbe 5f8f a6bd 26ca 5bbe
000000a0: bb70 cabd acd1 e03b ab8e d5bd 0d6f 3c3c
000000b0: 4da6 043e 80af d03d 25ea b43d 1d9c 3b3e
000000c0: 9c4f c23d 890f c43d edff e93d a325 b63d
000000d0: 9f71 eb3d 3ca6 ee3d 70fb 66bf c5ce 0fbf
000000e0: 7c7c 3abf 97c0 35bf fe28 a5be 3489 04bf
000000f0: a4d2 82bf b88c 2ebf 1cf3 76bf 3b6b a9be
00000100: 9a68 69be cc0e bcbe ec4a a1be 15e0 11be
00000110: 56ef 78be f813 c1be c935 88be 690c c3be
00000120: 3d85 cebd 7c2b fbbd e20e a1bd 01a8 b9bd
00000130: d44e bcbd c8b5 94bd aea3 29be 35f0 b9bd
00000140: 6e61 b4bd ed98 67be 014d 21be fd4e c4bd
00000150: 1654 3ebe b5bc ecbd acde 3bbd 55b1 70bd
00000160: 547d a03c 18f5 cc3d 5385 383d 92dc a03d
00000170: 51c7 9c3d aa50 693d 193d 8f3d 3337 ad3d
00000180: 2626 b53c d457 2c3d a8fa 863d 4874 e43c
00000190: c696 9c3c 5889 06bd 43d0 213d 7608 13bc
000001a0: a346 77bb d5cd 03bd 81f8 19bd d0be 11bd
000001b0: 495d 6b3e c8b3 853e ad5c b93e de1c 6e3e
000001c0: b1d4 3d3e 44c6 4c3e 3747 863e 6043 333e
000001d0: fef2 7d3e 3e81 4ebe 3f2f 13be eb6d acbd
000001e0: b214 44be 512b b2bd cedf bcbc de26 f9bd
000001f0: 022c f939 2723 a73d fb49 42be 7217 45bd
00000200: 7f4b 2d3d e936 1cbe 6147 d8bc ad75 9c3d
00000210: 9b70 d5bc d3a1 c13d 1bf6 553e ae7c a53d
00000220: e724 a23d d1b8 113e 2524 153e e49f 253d
00000230: 2161 903c b504 063e 6acd b73d 5bf4 603d
00000240: ec4f d73c f328 5d3d f869 053e 1dfe ae3d
00000250: 4bbd 8b3d f066 f93d bf59 2a3d 18c6 903d
00000260: 8301 d83d 2021 0dbe 8be2 afbd 3f10 c0bd
00000270: fb52 1ebd a859 98bd 4114 9ebd bd36 00be
00000280: af8d d9bd ad09 c8bd ca13 c0bd 7327 b6bd
00000290: d3ff 2abe 69c9 c1bd 3745 40bd 8115 06be
000002a0: 18fe 1fbe bfbf ebbd e58e 10be de18 12be
000002b0: cd63 17be ca69 5abe 79ac fcbd 7f1b f8bd
000002c0: 396e 37be c7b0 29be 8950 d5bd 6639 17be
000002d0: 853d bebd 2ccb 90bd 3962 09bd 2d81 96bd
000002e0: b0fe bfbc 370f a7bd c840 0fbe 2cb9 a0bd
000002f0: 0664 dfbd 6c77 a93c 35de 8c3d a4a9 dc3d
00000300: dfc2 763d bd67 0a3d 45df b73d cf21 5b3d
00000310: 8bdb c43c 4c82 3e3d 4577 82bf c853 27bf
00000320: 62b3 50bf dd19 4dbf 86de acbe f41e 05bf
00000330: 7fdf 96bf dfee 45bf 3092 87bf 34b3 393c
00000340: d2b6 2ebd 396a 573b 8a47 0c3d 9de1 24bd
00000350: c115 7dbd 3d41 88bd d7b4 94bd d5bc 77bd
00000360: 5706 77be 393f 65be 0572 92be b48f 5fbe
00000370: 8a14 1ebe a40c 4ebe 9041 a4be 0dc0 6cbe
00000380: 4e47 86be d68f 2d3d 1b66 0d3e abab 9e3e
00000390: cfb9 eb3d f4ff ec3d 4924 723e 11c2 873e
000003a0: 9dd8 7e3e 3551 a83e ba89 633d 6509 8d3d
000003b0: 6a36 8f3d c5d4 bb3d 446d 1b3d cdac 113c
000003c0: 6c10 82b9 d3c1 cfbc e960 e03b 96e6 57bf
000003d0: a0f7 fabe a820 02bf 8bdf 2dbf 5f75 e4bd
000003e0: 0547 25bd 2679 51bf faa6 d8be 2456 04bf
000003f0: 2542 9a3a 616e 903b 4198 5bbc bf5d 153c

7.bias f4 [30]
-0.5645264 0.21877256 -0.44818896 0.12686913 -0.29910243 -0.44941625 -0.26334527 -0.3786358
-0.39590216 -0.13586083 -0.28919533 -0.45418605 -0.18197456 -0.5716721 -0.2612233 -0.14171629
-0.13729015 -0.52403736 -0.25061148 -0.46836776 -0.01766362 -0.3935875 0.028598694 -0.5459739
-0.2838172 -0.6088687 -0.5649678 -0.35129493 0.10575254 -0.20367162
00000000: cd84 10bf ea05 603e 0679 e5be fbe9 013e
00000010: f423 99be e319 e6be 31d5 86be 8ddc c1be
00000020: b0b3 cabe 1a1f 0bbe 6911 94be 138b e8be
00000030: 8a57 3abe 1a59 12bf 0fbf 85be 131e 11be
00000040: ca95 0cbe 5027 06bf 2650 80be e6cd efbe
00000050: 4cb3 90bc 4d84 c9be cf47 ea3c f2c4 0bbf
00000060: 7d50 91be d2de 1bbf bba1 10bf eedc b3be
00000070: ca94 d83d 4b8f 50be

11.weight f4 [20, 30]
0.18805513 -0.37129673 0.08018661 -0.15332027 -0.14353491 0.17239821 0.181404 0.12581109
-0.12027969 -0.14029342 -0.15770882 0.073334135 0.19090235 0.26961863 0.062675424 -0.09634089
0.17378198 -0.005191624 -0.038064357 0.03654076 0.1275765 0.11253297 0.19796674 0.08499211
0.22119443 -0.0125154415 0.17941625 0.15505888 -0.41465726 -0.011866542 -0.66477853 -0.13041562
-0.5450562 0.1421902 -0.14543538 -0.68658245 -0.12339237 -0.25240493 -0.6313182 0.03443757
-0.13481848 0.0822064 0.05014661 -0.87484723 -0.20313606 0.09937066 0.1345838 -0.42814246
0.1502094 -0.22459099 0.2247529 -0.4346748 0.19253723 -0.7689389 0.04363223 -0.70057595
-0.5228181 -0.07639323 0.033861488 0.099344335 -0.011645042 -0.10695738 0.019739656 0.20127492
0.0334031 -0.10443058 -0.005137365 0.08396904 -0.16654308 -0.04480104 -0.28508168 -0.0781683
0.055073943 -0.19432966 -0.026173143 -0.09623139 -0.14731681 -0.12691842 0.031224696 0.013014279
0.032614324 0.043731675 -0.0687872 -0.23645508 0.014267087 0.02336914 -0.07001316 -0.22739619
0.040990192 -0.18912853 0.17252396 -0.20040216 -0.045940425 -0.103932746 0.15306656 0.13407828
0.08196691 0.057633407 -0.29544505 -0.07865302 0.24418727 0.3372525 -0.050028834 0.2143871
0.1399137 0.13281459 -0.24378219 0.19611584 0.022896465 0.1463232 -0.3944306 0.11599088
-0.4664055 0.13556318 -0.39447114 0.23573436 0.28487295 0.1587792 -0.051864065 -0.052059725
-0.5477226 0.13641302 -0.43144342 0.079645276 -0.053874467 -0.53039247 0.048229974 -0.20037015
0.066774316 0.08403375 -0.16660519 0.5896962 0.05288667 -0.14394553 -0.42625737 0.18875852
-0.017030993 -0.6550925 -0.039511744 -0.72918266 0.142494 -0.73662347 0.08623039 -0.2516002
0.027863678 -0.21729206 -0.53849226 -0.3464741 0.08959911 0.049449027 -0.05393925 -0.1170427
0.056495782 -0.03219802 -0.11588614 -0.17414078 0.074444585 -0.037693564 -0.105402224 0.13230512
-0.017994946 -0.19739175 0.04186827 -0.039505437 -0.010243699 0.037900385 -0.08044443 -0.26040918
-0.18524194 -0.27836353 -0.14238848 -0.16581343 -0.09203866 -0.016224049 -0.074470595 -0.04184285
0.019407718 -0.16901477 -0.16141233 0.15667844 0.21591197 -0.120612726 0.18285066 0.28299728
-0.007705483 0.09743203 -0.07573986 0.2390737 -0.08540642 -0.08062112 0.04262556 -0.49756595
-0.10972557 0.36392587 0.12566978 -0.19435818 0.34123573 0.122917734 -0.10803934 0.09972481
0.29270223 -0.1237678 0.12753773 0.25206003 0.35103586 -0.00016900159 0.11318663 0.19069806
0.089838035 -0.17054442 -0.1605327 -0.37261182 -0.1338011 -0.058384176 0.03405587 -0.14886396
0.09241504 -0.13825871 0.01478739 -0.07599975 0.15560634 0.030678673 -0.013081529 -0.14456375
-0.16311702 0.31247646 0.21644633 -0.0515021 0.030437004 0.15533996 0.14100349 0.0585469
0.20920113 -0.034355007 0.32310966 -0.26924103 0.07552564 -0.48686144 -0.28168622 0.029518643
-0.33839113 -0.45790094 -0.41288313 -0.1274425 0.18568109 -0.33402678 -0.13804412 0.12682638
-0.41943312 0.1849417 -0.08878628 0.28715765 0.055715714 -0.708967 -0.16609766 -0.06775672
00000000: 8691 403e 9b1a bebe e138 a43d fdff 1cbe
00000010: d1fa 12be 2889 303e f8c1 393e 9fd4 003e
00000020: 3355 f6bd 14a9 0fbe 6c7e 21be 3530 963d
00000030: e87b 433e 740b 8a3e f95b 803d 5f4e c5bd
00000040: e7f3 313e 801e aabb 5fe9 1bbd c4ab 153d
00000050: 6aa3 023e b077 e63d cbb7 4a3e 5810 ae3d
00000060: cb80 623e 910d 4dbc e5b8 373e c1c7 1e3e
00000070: f54d d4be e26b 42bc ed2e 2abf ac8b 05be
00000080: ce88 0bbf 4f9a 113e 03ed 14be dec3 2fbf
00000090: 24b5 fcbd 383b 81be 129e 21bf 690e 0d3d
000000a0: db0d 0abe d45b a83d 8866 4d3d fdf5 5fbf
000000b0: e602 50be d882 cb3d 56d0 093e 7d35 dbbe
000000c0: 7ed0 193e 2efb 65be a025 663e b28d debe
000000d0: 7b28 453e 2ed9 44bf b6b7 323d f258 33bf
000000e0: 68d7 05bf 0e74 9cbd 58b2 0a3d 0b75 cb3d
000000f0: d9ca 3ebc 790c dbbd 0fb5 a13c 031b 4e3e
00000100: b0d1 083d b3df d5bd 5757 a8bb f6f7 ab3d
00000110: 458a 2abe 4c81 37bd 3af6 91be b416 a0bd
00000120: 3795 613d 5bfe 46be 0f69 d6bc f714 c5bd
00000130: 38da 16be e7f6 01be efca ff3c d839 553c
00000140: 9996 053d fc1f 333d 4ee0 8cbd 4821 72be
00000150: 80c0 693c a470 bf3c 0f63 8fbd 8cda 68be
00000160: 55e5 273d e9aa 41be 1faa 303e 3936 4dbe
00000170: 072c 3cbd b1da d4bd 7bbd 1c3e d14b 093e
00000180: 44de a73d 0211 6c3d 9344 97be d614 a1bd
00000190: 3a0c 7a3e 5cac ac3e 09eb 4cbd 4b88 5b3e
000001a0: 8945 0f3e 8c00 083e 0aa2 79be 97d2 483e
000001b0: 5e91 bb3c c0d5 153e cff2 c9be a08c ed3d
000001c0: b4cc eebe 13d1 0a3e 1ff8 c9be 5964 713e
000001d0: deda 913e 0497 223e 6a6f 54bd 943c 55bd
000001e0: 8c37 0cbf dbaf 0b3e 27e6 dcbe 101d a33d
000001f0: 79ab 5cbd cdc7 07bf cb8c 453d d52d 4dbe
00000200: f9c0 883d e319 ac3d 8d9a 2abe 55f6 163f
00000210: b19f 583d 7566 13be 683e dabe ea49 413e
00000220: 9584 8bbc 24b4 27bf 11d7 21bd b7ab 3abf
00000230: f2e9 113e 5b93 3cbf 8f99 b03d bed1 80be
00000240: 5e42 e43c cf81 5ebe a1da 09bf 0e65 b1be
00000250: bd7f b73d 108b 4a3d 67ef 5cbd 15b4 efbd
00000260: 1f68 673d 12e2 03bd b655 edbd f651 32be
00000270: 6776 983d 9164 1abd 1fdd d7bd fe7a 073e
00000280: 236a 93bc 1021 4abe 107e 2b3d 74d0 21bd
00000290: 30d5 27bc 6f3d 1b3d 0dc0 a4bd 5a54 85be
000002a0: 10b0 3dbe aa85 8ebe 49ce 11be ffca 29be
000002b0: c47e bcbd 4ce8 84bc 0a84 98bd 6963 2bbd
000002c0: effc 9e3c 3512 2dbe 4649 25be 5070 203e
000002d0: 0718 5d3e ce03 f7bd 343d 3b3e 05e5 903e
000002e0: 477e fcbb 728a c73d 801d 9bbd bccf 743e
000002f0: 90e9 aebd b01c a5bd 2498 2e3d f7c0 febe
00000300: cdb7 e0bd 7e54 ba3e 94af 003e d505 47be
00000310: 73b6 ae3e 4bbc fb3d bb43 ddbd 853c cc3d
00000320: 11dd 953e f979 fdbd 4099 023e 030e 813e
00000330: f9ba b33e 0536 31b9 64ce e73d 5a46 433e
00000340: 01fd b73d 32a3 2ebe af62 24be fac6 bebe
00000350: 2803 09be 3f24 6fbd 2b7e 0b3d cb6f 18be
00000360: 1944 bd3d b193 0dbe cf46 723c c2a5 9bbd
00000370: 4557 1f3e d751 fb3c e953 56bc 8508 14be
00000380: 2608 27be eafc 9f3e 1ba4 5d3e def3 52bd
00000390: 0657 f93c 7011 1f3e 3863 103e e0ce 6f3d
000003a0: d238 563e d6b7 0cbd a16e a53e f6d9 89be
000003b0: 30ad 9a3d e745 f9be 2d39 90be 15d1 f13c
000003c0: 9a41 adbe fe71 eabe 6b65 d3be 4980 02be
000003d0: 2f23 3e3e 8f05 abbe 705b 0dbe c6de 013e
000003e0: f0bf d6be 5b61 3d3e 95d5 b5bd 5406 933e
000003f0: 2936 643d dc7e 35bf 8115 2abe 09c4 8abd

11.bias f4 [20]
-0.33877686 -0.009841367 -0.23007518 -0.5014488 0.5173436 -0.21738279 -0.14625779 -0.09917904
0.045607664 0.37036788 0.09132186 0.15805356 -0.14860447 -0.01721695 0.1528118 0.12729695
0.046077058 -0.14719822 0.15212382 -0.095873795
00000000: 2974 adbe af3d 21bc d498 6bbe f35e 00bf
00000010: a170 043f 9899 5ebe 9ac4 15be 611e cbbd
00000020: 1acf 3a3d dca0 bd3e f506 bb3d cbd8 213e
00000030: c52b 18be 900a 8dbc b27a 1c3e 225a 023e
00000040: 4cbb 3c3d 21bb 16be 59c6 1b3e 7b59 c4bd

13.weight f4 [10, 20]
-0.09853556 -0.17685935 -0.08924945 -0.0951525 0.102430165 0.09850161 -0.34158456 -0.18112645
0.104363896 -0.121120244 -0.043006577 0.023845648 -0.27962178 -0.39316604 -0.33043253 -0.01199305
-0.49328154 -0.22646639 0.08927303 -0.04239772 0.031401843 -0.17624974 -0.029228646 -0.051245313
-0.15790808 0.14127043 -0.35958698 -0.030961612 -0.06899641 0.013008764 -0.28628185 -0.16937265
-0.23608033 -0.35705486 -0.1865692 -0.2268196 0.072828315 -0.035159938 0.1177676 0.12137693
0.19652581 0.21031924 -0.018673807 0.067612626 0.2692364 -0.05548291 -0.37047338 -0.24074984
-0.060124215 0.36013255 -0.16333766 -0.07089442 0.034191683 -0.09684905 -0.25348964 0.0925476
-0.1745491 0.096783414 -0.12565328 0.12724003 -0.118150316 0.15119262 -0.020798016 0.118970945
0.37362778 0.1803294 -0.3599133 -0.673097 -0.16047992 0.102068156 -0.62525606 0.19520807
-0.39405072 -0.06191996 -0.35942313 0.2421558 -0.068541646 0.030854618 0.21361762 0.14545669
0.14907597 -0.15185204 0.021614492 -0.08189113 0.17524087 -0.20913298 0.0192455 -0.024971355
-0.15430395 -0.2868198 -0.032496486 -0.19731049 -0.34001592 0.15944138 -0.019051237 -0.21084651
-0.21239443 0.09986661 -0.063179985 -0.13286607 -0.5680116 -0.20824698 0.15337977 -0.25978503
-0.20654674 0.13900322 -0.08146704 -0.55870813 -0.20674543 0.022707887 -0.063043796 0.41285115
0.093792215 0.31938717 0.14448072 0.007604812 0.19638272 0.183611 0.1002256 -0.14712277
-0.089491144 0.26755866 -0.06731065 0.029907586 -0.31466275 0.0036447572 0.072891854 -0.054794
-0.038010128 -0.014130061 0.18391234 0.0577439 -0.34832463 -0.3636603 -0.59592575 0.37982863
-0.041549556 -0.28369626 0.046100046 0.034454886 -0.037829325 -0.15187913 -0.11898887 -0.13184847
0.10193012 0.20060802 0.027260913 -0.119606785 0.12503824 -0.17463806 -0.21486163 0.2020527
-0.085415706 -0.112665825 0.19078118 -0.09919764 0.0031929098 0.105715804 0.04761912 -0.02590532
-0.25749174 -0.3106781 0.04256258 -0.2830406 -0.38642815 -0.024673916 0.0952189 -0.25377107
-0.2701782 0.2659476 0.014540938 0.44959956 0.07993 0.2974564 0.2761258 -0.18116279
0.117022805 0.14084424 0.13150266 -0.49404153 -0.041861005 0.05885283 0.07325812 0.1073455
0.53188956 -0.09013693 -0.011751212 -0.32607266 -0.04470558 0.107600234 -0.28120524 0.1646314
-0.36880833 -0.224797 -0.6293223 0.26810172 0.19043125 -0.016980369 0.10983378 -0.015707588
00000000: 03cd c9bd 9e1a 35be 6ac8 b6bd 50df c2bd
00000010: e8c6 d13d 36bb c93d 2ce4 aebe 3679 39be
00000020: bdbc d53d e40d f8bd aa27 30bd f357 c33c
00000030: 962a 8fbe 0f4d c9be 742e a9be 7f7e 44bc
00000040: 668f fcbe cee6 67be c7d4 b63d 3ba9 2dbd
00000050: 389f 003d d07a 34be ea70 efbc 9be6 51bd
00000060: a8b2 21be 32a9 103e c91b b8be 35a3 fdbc
00000070: fd4d 8dbd b622 553c 8993 92be 0670 2dbe
00000080: 0bbf 71be e5cf b6be ff0b 3fbe 6643 68be
00000090: 0327 953d de03 10bd 2430 f13d 7894 f83d
000000a0: 103e 493e ed5d 573e d0f9 98bc 7d78 8a3d
000000b0: 5ad9 893e 0c42 63bd b0ae bdbe 2087 76be
000000c0: cf44 76bd 4b63 b83e fd41 27be 1831 91bd
000000d0: 940c 0c3d cb58 c6bd 65c9 81be 9989 bd3d
000000e0: 00bd 32be 6236 c63d 41ab 00be 364b 023e
000000f0: cbf8 f1bd 3dd2 1a3e 9a60 aabc 0aa7 f33d
00000100: 244c bf3e 45a8 383e 8e46 b8be 1650 2cbf
00000110: d954 24be 1c09 d13d c810 20bf a0e4 473e
00000120: 04c1 c9be c99f 7dbd 4f06 b8be b1f7 773e
00000130: 905f 8cbd d3c2 fc3c 94be 5a3e 99f2 143e
00000140: 5fa7 183e 1a7f 1bbe e010 b13c 89b6 a7bd
00000150: 5872 333e f526 56be bda8 9d3c ba90 ccbc
00000160: db01 1ebe 0bda 92be 091b 05bd c30b 4abe
00000170: 9116 aebe 9a44 233e 5711 9cbc 26e8 57be
00000180: ed7d 59be dd86 cc3d 8264 81bd 0b0e 08be
00000190: 3569 11bf b23e 55be 960f 1d3e 8b02 85be
000001a0: fd80 53be dc56 0e3e 31d8 a6bd 7f07 0fbf
000001b0: 13b5 53be e405 ba3c 1b1d 81bd 3a61 d33e
000001c0: 2216 c03d b786 a33e c1f2 133e c931 f93b
000001d0: 8d18 493e 8604 3c3e 1443 cd3d 5aa7 16be
000001e0: 2247 b7bd 73fd 883e 2bda 89bd c100 f53c
000001f0: 7a1b a1be e1dc 6e3b 5348 953d ac6f 60bd
00000200: 82b0 1bbd c581 67bc 8453 3c3e de84 6c3d
00000210: 9b57 b2be af31 babe 978e 18bf e678 c23e
00000220: de2f 2abd a340 91be 67d3 3c3d 9120 0d3d
00000230: ecf2 1abd 3486 1bbe 70b0 f3bd 4903 07be
00000240: bdc0 d03d 306c 4d3e 4752 df3c 67f4 f4bd
00000250: 060a 003e 52d4 32be b004 5cbe e7e6 4e3e
00000260: 6eee aebd 57bd e6bd 245c 433e 2228 cbbd
00000270: 2340 513b 8781 d83d 440c 433d 6537 d4bc
00000280: f5d5 83be 3311 9fbe 1a56 2e3d b3ea 90be
00000290: e9d9 c5be f420 cabc 2002 c33d 48ee 81be
000002a0: cc54 8abe 492a 883e 1d3d 6e3c ea31 e63e
000002b0: 57b2 a33d 354c 983e 5c60 8d3e bd82 39be
000002c0: a7a9 ef3d 7939 103e a2a8 063e 03f3 fcbe
000002d0: 7276 2bbd aa0f 713d 5a08 963d f5d7 db3d
000002e0: ea29 083f b699 b8bd 2888 40bc fff2 a6be
000002f0: 331d 37bd 835d dc3d 22fa 8fbe 2295 283e
00000300: 72d4 bcbe 2f31 66be 441b 21bf a144 893e
00000310: 6900 433e 6a1a 8bbc 88f0 e03d 33ad 80bc

13.bias f4 [10]
-0.33635724 -0.32393003 0.4096363 0.29329193 -0.3436807 -0.08198056 0.16315992 -0.21566816
0.1262898 0.24993733
00000000: 0437 acbe 28da a5be d9bb d13e 5c2a 963e
00000010: ebf6 afbe 6de5 a7bd 6513 273e 1dd8 5cbe
00000020: 1d52 013e 92ef 7f3e

15.weight f4 [1, 10]
-0.1918693 0.028114578 0.3028356 0.39085615 -0.12172782 -0.17963058 0.38006946 -0.30913326
-0.33917916 0.40576303
00000000: 6379 44be 8b50 e63c 450d 9b3e 4c1e c83e
00000010: 6f4c f9bd 14f1 37be 7798 c23e b746 9ebe
00000020: e4a8 adbe 2cc0 cf3e
